pretrained_model/model_Adam_MSELoss_LRDecay_weightDecay0.0001_batch50_lr0.0005_epoch90_64x64.pth (torch_old, 585475 bytes, 247 tensors)

stream1_stage3.0.weight f4 [32, 3, 3, 3]
000000 4a f4 b0 bb 4c 95 c7 bc 97 00 99 3b bf 91 fb 3c
       -0.0054002153 -0.024363182 0.00466926 0.030709146
000010 5e 5b 3d be 1f 09 45 be 89 32 c8 3d 14 b2 c9 3d
       -0.18491885 -0.1924176 0.09775264 0.09848419
000020 9c d4 68 3e f7 ab 48 bd f2 5e fd bd 77 c3 2f 3e
       0.22737354 -0.048992123 -0.12371625 0.17164408
000030 4f b1 34 3d 8f 81 e4 bd ee b2 21 be 72 67 e0 3d
       0.044114407 -0.11157524 -0.15790913 0.10957231
000040 d5 22 31 3e e3 3e 16 3d c6 dd 25 3b 14 c4 56 3e
       0.17298444 0.036681067 0.002530919 0.20973235
000050 33 0b 74 3e 72 b4 f8 bd 72 58 ac be a7 3f 04 bf
       0.23832397 -0.12143792 -0.33661228 -0.51659626
000060 ec 3f 33 3d 6f 2c 5a 3e 4d 69 d0 3d 72 84 57 be
       0.043762133 0.21306013 0.101763345 -0.21046618
000070 8f 23 15 be ad b6 a6 3e fd 6d f4 bd ed 1f b5 3c
       -0.14564346 0.32561246 -0.11935041 0.02210995
000080 8d cf db bc 5e 57 27 3e 3e fc cd bb bd 67 e7 bd
       -0.026832366 0.16341922 -0.006286173 -0.112990834
000090 2b c1 3c be 73 cd 78 3c 95 8b 6b 3d 2f 33 5b bd
       -0.18433063 0.015185702 0.057506163 -0.05351561
0000a0 11 d0 80 3d 4b 59 d2 bc 65 c9 eb 3e 31 6e bb 3c
       0.062896855 -0.025677344 0.4605209 0.022879692
0000b0 8c 73 91 be 55 e4 97 be 3c 37 3a bd a1 43 b1 3e
       -0.28408468 -0.2966639 -0.04546283 0.3462191
0000c0 09 e8 a3 bd e6 da 7e 3d 90 46 d4 3d 76 c9 a0 3d
       -0.080032416 0.062220477 0.10365021 0.078509256
0000d0 0a ba 86 3d 08 2f 48 be dc b1 ba 3d 9f 8b 93 bc
       0.06578453 -0.19549191 0.09115955 -0.018010912
0000e0 a5 4e a1 bd 36 06 f0 bd a1 8f 82 bc ab 91 5b be
       -0.078763284 -0.11719935 -0.015937628 -0.21442287
0000f0 d2 2d ad 3d d0 05 b3 3d f2 37 38 bd ef b5 c4 be
       0.08456005 0.08741343 -0.04497523 -0.38420054
000100 63 61 9b bd 9c 4d 0b 3e a9 24 68 be 1e a1 25 bc
       -0.075869344 0.13603824 -0.22670235 -0.010109214
000110 bb 47 fb 3d 16 72 5e 3e 7c 2f 69 3e c5 d6 98 3e
       0.12269541 0.21723208 0.2277202 0.29851356
000120 57 3d d3 be 0e b6 f0 bd 02 14 fb 3c 93 f9 9a be
       -0.41257736 -0.11753474 0.030649189 -0.30268535
000130 31 6c d2 3c 7e 21 4b 3c e5 dd 9d 3d 86 b8 ac 3e
       0.025686355 0.012398122 0.07708339 0.3373453
000140 e1 73 5b 3e ee 93 df bd 6e c5 ab 3b de 9f f3 bc
       0.21430923 -0.10916887 0.0052420413 -0.029739317
000150 00 da 66 bd e2 91 e9 bd cb 75 fd 3c ab 5e 76 3d
       -0.056360245 -0.11404778 0.030939957 0.060148876
000160 4a af ae 3d a2 57 d6 bd 7a 76 66 3d d8 57 a1 3d
       0.085295275 -0.104659334 0.05626533 0.07878083
000170 58 99 9d 3d f5 5f cc 3c 07 17 ad bc 1d 2b bf 3c
       0.076952636 0.0249481 -0.021129144 0.023335988
000180 fe 1e af bd f4 31 65 bd 80 46 8f be 84 da 7a 3e
       -0.08550833 -0.055955842 -0.27983475 0.2449742
000190 94 32 f6 3e 51 01 03 3e c4 65 60 3e 84 c6 47 3f
       0.48085463 0.12793471 0.2191382 0.78037286
0001a0 1c 94 f2 3e 21 a3 af 3e 00 c6 e0 3e 1c 31 13 3e
       0.47378623 0.34304145 0.43901062 0.14374202
0001b0 9e 10 4a 3e b2 0b bc 3e 04 5b 6e bd d5 3c d0 3e
       0.19732901 0.36727673 -0.058192268 0.4067141
0001c0 d1 dc 85 3e 44 b0 94 bd 8f c1 15 bd 06 fe f3 3d
       0.26145032 -0.072601825 -0.036561545 0.119136855
0001d0 d9 1b 51 be 44 aa 93 3c c0 6f cd 3d c3 4f 6e 3c
       -0.2042078 0.018025525 0.1003108 0.014545384
0001e0 b5 2c 71 3d 4d 6b 51 3d c2 34 bf ba 45 1c 01 be
       0.058880527 0.05112772 -0.0014587867 -0.1260844
0001f0 c5 31 5a be 82 e7 79 be 6d b7 8d 3e 18 ae 04 bc
       -0.21308048 -0.2440472 0.27679005 -0.008098148
000200 eb 99 08 3e a3 42 47 3e 13 98 0f 3e 10 db b3 bd
       0.13339965 0.19459014 0.14022855 -0.08782017
000210 2f 14 a3 bd 22 ec c1 bc 40 d8 4c be 2d 12 ad 3e
       -0.07962834 -0.023672167 -0.20004368 0.3380293
000220 f8 82 04 be de 77 16 be be a8 14 3e 69 95 bd bd
       -0.12940586 -0.14694163 0.14517495 -0.09257013
000230 4f eb 5a be a8 bc c8 3d ce 6f 36 3d 27 2f 33 be
       -0.21378826 0.09801608 0.04454022 -0.17498456
000240 de 8f bc 3e 94 4c 0a be da 64 7b be e2 76 5c 3e
       0.36828512 -0.13505775 -0.2455019 0.21529725
000250 c5 31 8e 3d b4 86 5f be c3 d3 2e 3e 45 87 71 3d
       0.069430865 -0.21828729 0.17072968 0.058966894
000260 72 cb 82 be eb ac 88 3e d6 0a 40 bd 15 bf 1d be
       -0.2554584 0.26694426 -0.046885334 -0.15404923
000270 dc dc 11 3e b3 db 41 bc f6 59 5a be 32 1d bb 3d
       0.14244407 -0.0118321655 -0.2132338 0.09136428
000280 cf 59 ca 3d a0 53 e2 bd c0 da e7 3c b3 ee 92 bd
       0.09880411 -0.110511065 0.02830255 -0.071744345
000290 c1 f0 34 be c8 3b 2b be a5 82 94 bd f3 17 af bd
       -0.17669965 -0.16722023 -0.07251481 -0.0854949
0002a0 5c 4b a4 3e 7d 51 8d 3e 39 fb f9 3b ae 53 7b bd
       0.32088745 0.27601233 0.007628825 -0.0613591
0002b0 7b f6 de bd 3a 1c 2b bd 05 53 d8 bd 27 13 8d bd
       -0.10886856 -0.041774966 -0.1056271 -0.06888419
0002c0 7f 19 df bd 88 3b b7 3e 64 a9 4a 3e 6c 1f a9 3e
       -0.10893535 0.35787606 0.1979118 0.33031785
0002d0 53 f2 07 be 10 ca b3 bd e8 c4 8c 3d 90 f2 87 be
       -0.13276033 -0.08778775 0.068734944 -0.26552248
0002e0 ea 82 1e be b1 1a 1c be c9 16 18 3e cc 98 b1 3d
       -0.15479627 -0.15244557 0.14852442 0.08671722
0002f0 15 70 58 3c a1 22 60 3e ea 74 77 3e 2d 83 73 3d
       0.013210316 0.2188821 0.24165693 0.05945127
000300 4c 3c bb 3d 2d 39 c4 3d d6 d4 a8 3b 54 14 9c bd
       0.0914236 0.09581218 0.005152325 -0.07621065
000310 67 d9 ab be cd b0 a2 bd 74 95 ff 3d da bd 9a 3d
       -0.33564302 -0.07943878 0.12479678 0.075557426
000320 8e 9f 70 3e 7c 77 ac bd 53 43 c5 bd e5 e5 af bd
       0.23498365 -0.08421227 -0.09631982 -0.08588771
000330 12 e9 7f be a0 66 8c be 9c 9e 93 be 85 96 86 3e
       -0.24991253 -0.27422047 -0.28831947 0.26286712
000340 5c 24 7a 3d c6 43 81 3e 58 4d b8 3c 7b 69 40 3d
       0.06106983 0.2524702 0.022497818 0.046975594
000350 b2 2b 8f 3d ae e0 0f be ec a8 4a be b0 c6 c8 3d
       0.06990756 -0.14050552 -0.19791001 0.09803522
000360 df bf ac 3d 34 d4 31 bb 97 57 f1 3c b9 c1 0d be
       0.08435034 -0.002713454 0.029460711 -0.1384343
000370 69 1c 1a be 1d 36 a8 3d 95 74 3a be f6 af 49 be
       -0.150499 0.08213446 -0.18208535 -0.1969603
000380 60 25 31 bd a3 76 8b 3e 03 8a 13 3e e2 14 b2 3e
       -0.043248534 0.2723895 0.14408116 0.34781557
000390 cb 7b 95 3d b9 95 f3 3c 87 bb 5f 3e 80 52 74 bd
       0.07299002 0.02973448 0.2184888 -0.05964899
0003a0 ce 81 9a 3c 12 0b 1b be eb a8 3b 3e ad ee ef 3c
       0.018860724 -0.15140942 0.18326156 0.029288614
0003b0 59 33 26 3d c4 f0 08 be 0a 4a 44 be 75 67 63 be
       0.040576313 -0.13373095 -0.19168869 -0.22207434
0003c0 15 e7 30 be cd c7 82 be 79 cb 1b be 9e aa d1 bd
       -0.17275651 -0.2554306 -0.15214337 -0.10237621
0003d0 8d 29 1c bb 8d 62 cd bd ec 98 f4 3d a9 61 ef 3d
       -0.0023828477 -0.10028563 0.1194323 0.11688549
0003e0 df de bb 3d 13 41 a6 bc 8f bd 79 bd e4 f8 09 be
       0.09173369 -0.020294702 -0.060971793 -0.1347385
0003f0 41 a6 fb 3d 0e 06 1a 3e f4 a3 eb 3d 07 23 8d 3e
       0.1228757 0.15041372 0.11505881 0.27565786

stream1_stage3.0.bias f4 [32]
000000 98 36 5a ba 24 71 bc ba b7 8f ee 3a 3f cc 4f 38
       -0.0008324175 -0.001437698 0.0018200789 4.9542865e-05
000010 00 e9 a7 37 80 4a 17 bb 08 14 a9 39 77 af 0a 3b
       2.001645e-05 -0.0023085177 0.00032249116 0.0021161714
000020 6e b7 0b 3a 43 60 fb b9 4b c5 ed b8 5a 72 0f bb
       0.00053297624 -0.0004794617 -0.00011337789 -0.0021888227
000030 37 ba 87 39 e3 73 3c ba 92 6a 03 ba f4 66 b3 3a
       0.00025887947 -0.00071888993 -0.00050131336 0.0013687299
000040 78 d4 57 b8 ae 18 ee ba ce 45 cd 3a b8 ed ab 39
       -5.145787e-05 -0.0018165314 0.0015661062 0.00032792776
000050 33 22 ad b7 8c 94 98 b9 d9 1d f1 b8 67 71 57 b9
       -2.0639132e-05 -0.00029102375 -0.00011497335 -0.00020546243
000060 35 97 f0 38 07 ac a8 ba 43 3d 0f 3a e1 8f 09 39
       0.00011472256 -0.0012868651 0.0005464146 0.00013118937
000070 28 37 5d b9 d6 96 07 b8 de 76 7f 39 0a c5 10 37
       -0.0002109675 -3.2326985e-05 0.00024362977 8.628946e-06

stream1_stage3.1.weight f4 [32]
000000 3a af 91 3f c4 84 a9 3f ae 2e c3 3f 7e 47 35 3f
       1.13816 1.3243642 1.524862 0.70812213
000010 3f 74 24 3f 48 29 a2 3f e4 a3 8d 3f 79 cb 97 3f
       0.6423988 1.2668848 1.106564 1.185897
000020 fe ef 3e 3f ea f6 14 3f 14 ad 21 3f 80 4a 9f 3f
       0.7458495 0.5818926 0.6315472 1.244461
000030 2a 12 33 3f 50 a0 56 3f 91 0a 2c 3f 8a 29 ac 3f
       0.6994959 0.8383837 0.67203623 1.3450177
000040 af 57 33 3f 4b 9c 98 3f 23 79 9e 3f a0 fe a4 3f
       0.7005567 1.1922697 1.2380718 1.2890205
000050 f0 98 64 3f 19 85 32 3f 2e da 23 3f 41 b8 5e 3f
       0.89295864 0.6973434 0.6400479 0.869999
000060 cd e0 ad 3f f3 1c ab 3f 9a 0d 07 3f d6 cc 39 3f
       1.3584229 1.336821 0.5275513 0.7257818
000070 64 1d 5a 3f d0 b2 1f 3f d5 b7 32 3f 67 56 2c 3f
       0.85201097 0.6238222 0.69811755 0.6731934

stream1_stage3.1.bias f4 [32]
000000 a4 51 9d be 37 0f 31 be f0 5d 81 3e f8 3d 95 be
       -0.3072635 -0.1729096 0.2526698 -0.2914884
000010 bc 24 8a be 67 18 2f 3d 79 39 40 3e 93 11 95 bc
       -0.2698115 0.04274788 0.18771924 -0.018196857
000020 54 0f e2 bd 83 94 a9 be e5 98 1f bf db 18 27 be
       -0.1103808 -0.33121118 -0.62342674 -0.16318075
000030 13 e5 00 bf 77 1d cb be 24 44 aa be 77 76 8c 3e
       -0.5034954 -0.39670917 -0.33255112 0.27434132
000040 03 a0 c8 be 9e f6 47 bc f6 97 61 3d 38 63 d4 3d
       -0.3918458 -0.012204794 0.055076562 0.10370487
000050 88 25 cf be 40 67 f2 be c3 99 4e bd c2 c8 47 be
       -0.40458322 -0.47344398 -0.050439607 -0.19510177
000060 00 66 1a 3e 16 a2 12 3d ef 59 7c be 1c f7 57 be
       0.15077972 0.03579911 -0.24643682 -0.21090358
000070 bd 0e 0c be 68 f7 11 bf 01 72 7f be 41 2a 06 bf
       -0.13677497 -0.57018137 -0.24945833 -0.52408224

stream1_stage3.1.running_mean f4 [32]
000000 a6 2b ce bd af 32 21 3d 02 cb dc bc b4 09 f8 3f
       -0.10066919 0.039354976 -0.02695227 1.9377961
000010 39 fd d4 3d 29 76 44 3d f7 bd 79 be d4 72 3a 3e
       0.10399861 0.04796425 -0.24388872 0.18207866
000020 64 7e ad be bc ca 89 be e6 cb 1b 3f 4d 0f b2 3d
       -0.3388549 -0.26912487 0.60858 0.08694325
000030 b8 fe 11 bd 94 13 d8 be e8 ab 8d 3e 92 04 9f bc
       -0.03564331 -0.42202437 0.27670217 -0.019411359
000040 48 20 e9 3c c1 aa ab bd d6 49 97 bb 20 8c 73 bd
       0.028457776 -0.08382178 -0.004616956 -0.059459805
000050 c1 78 6b be b8 eb b4 3e c5 76 c5 be 69 03 49 3e
       -0.22995283 0.3533609 -0.38567176 0.19630207
000060 04 34 a6 3c 64 73 f9 3c fd d6 6f be ca c7 43 bc
       0.020288475 0.03045053 -0.23421855 -0.011949489
000070 20 b9 c9 3e 4b 51 69 bf 4b e0 4e bf 82 c8 e7 3e
       0.39399052 -0.9113967 -0.80810994 0.45270163

stream1_stage3.1.running_var f4 [32]
000000 50 a1 11 3e f8 67 ef 3d 3e 06 18 3f 44 24 5b 41
       0.14221692 0.11689752 0.59384525 13.696354
000010 d7 b3 fa 3f fc 5e 61 3f 0c a1 ef 3e f0 cb 34 3f
       1.9586133 0.8803556 0.46802557 0.70623684
000020 d1 c0 5a 3f f6 7e ac 3f c3 e4 4d 40 28 1c e0 3e
       0.85450464 1.3476245 3.2170875 0.43771482
000030 fc a3 7c 3f 48 a0 75 3f eb 7e b5 40 d2 3f 53 3f
       0.9868772 0.95947695 5.671743 0.8251926
000040 b9 23 3a 3f fd a6 9b 3e 65 3b f3 3e 28 0b 26 3f
       0.7271076 0.3040084 0.47506252 0.64860773
000050 90 14 2b 3f 2f de e2 40 28 7d 62 41 56 52 9a 3f
       0.6682825 7.089622 14.155556 1.2056377
000060 41 83 ec 3e 11 10 45 3f c9 4f ba 3f 38 60 d0 3f
       0.4619389 0.7697764 1.4555598 1.6279364
000070 07 16 15 3f 2d 94 bd 40 ab 4c c6 3f e1 d4 6f 3f
       0.58236736 5.924338 1.5492147 0.936842

stream1_stage2.0.weight f4 [32, 32, 3, 3]
000000 e2 46 2e 3d 2d 02 3b 3c ff 6d 08 3e a8 30 5d 3e
       0.042548068 0.011414093 0.1332321 0.21600592
000010 38 f5 88 3e 22 77 66 3d ad c8 dc bd f5 b7 ca bc
       0.26749587 0.056265958 -0.10780463 -0.02474592
000020 89 bf 94 be 74 74 66 3e 55 5a a0 3e f3 0c 4c 3e
       -0.2905238 0.22505361 0.31318918 0.19926815
000030 37 a0 a9 3c fd 0e 5a 38 54 b4 c7 be 7e 1f 16 bf
       0.02070628 5.198921e-05 -0.39004767 -0.58641803
000040 38 9d 87 3d 9e d6 3b 3e 91 d3 89 bc e5 f6 a0 bb
       0.06621784 0.18343589 -0.016824516 -0.0049122446
000050 8e 21 8b 3d ea 99 e9 bd fa d5 64 be 0a fb 00 bf
       0.067935094 -0.1140631 -0.2234725 -0.50383055
000060 7f 6e eb be 39 0a 78 be d5 81 b3 3d 91 3b 00 3d
       -0.4598274 -0.2422265 0.08764998 0.031306807
000070 70 86 cd 3c 2f 7f f2 3d 50 e0 0e 3e bd a9 87 3e
       0.025088519 0.118406646 0.13952756 0.26496688
000080 ed ce 00 3e c1 6f 23 3c b4 4f 02 3b 84 30 e7 bd
       0.12578936 0.009975375 0.0019883933 -0.112885505
000090 b8 26 99 be 7b f4 54 be d3 d1 8b be 87 fe 32 3e
       -0.29912353 -0.20796387 -0.2730852 0.17479907
0000a0 fc 33 75 3d e9 c9 02 3c 9e c1 88 3c 23 dd 4f 3d
       0.05986403 0.007982709 0.016693886 0.050748
0000b0 7a 00 47 3e 2b c6 a4 3d c6 b1 59 3e a7 46 96 3e
       0.19433776 0.0804561 0.21259221 0.29350778
0000c0 f3 86 66 be 1e 40 27 bc 57 06 48 be 46 cb 95 be
       -0.22512417 -0.010208158 -0.19533668 -0.29256648
0000d0 c3 3d 18 3e b7 d0 d3 bb 1e 7e 80 3d 95 5b ee 3c
       0.1486731 -0.0064640897 0.06274055 0.029096404
0000e0 0b 20 aa 3e a0 95 d4 3d b1 4c 54 3e 7f 5f f9 bd
       0.33227572 0.10380101 0.2073238 -0.121764176
0000f0 25 eb 10 be 7b af 96 3d b7 b7 f2 bd 32 f3 50 be
       -0.141522 0.07357689 -0.11851447 -0.20405272
000100 08 ae 0a be 0c 6f 95 bd 85 92 64 be 16 f4 4f be
       -0.1354295 -0.07296571 -0.22321518 -0.20307955
000110 85 99 0a 3e 53 52 cb bc 3c c0 6c be ef c2 8c bc
       0.13535126 -0.024819529 -0.23120207 -0.017182795
000120 b3 0e e7 3d d5 2c 91 3a 6b 34 1b be 09 fa 27 bd
       0.112821005 0.0011075983 -0.15156715 -0.041009936
000130 91 44 68 be b3 bf af bd 05 0d 76 3d 93 59 14 be
       -0.22682406 -0.085814856 0.06007101 -0.14487295
000140 ca 69 5e be d5 77 5d be 57 11 59 be 16 2b d2 bd
       -0.21720043 -0.21627744 -0.21198021 -0.10262124
000150 4a a9 2f be 77 ed 96 bd 20 0c c0 bd e5 d0 1c be
       -0.17154422 -0.073695116 -0.09377313 -0.15314062
000160 f7 25 93 bd 49 12 42 be cc fe f6 3c 26 1c 9b 3d
       -0.071849756 -0.18952288 0.030150793 0.07573728
000170 e1 ab d6 3d 29 24 02 3e 3d 49 b8 bd 82 55 de 3b
       0.10482002 0.12709107 -0.08998344 0.0067850957
000180 6a da 00 3e 63 44 55 3e ef c9 05 3e 5e 27 6b 3e
       0.12583318 0.20826869 0.13065313 0.22964236
000190 3f b3 84 3e eb 3a 1f 3c 41 6a d2 bd ba 87 c3 bd
       0.25918004 0.009718637 -0.102741726 -0.09547372
0001a0 0f ff 13 3e ae eb a6 be 93 79 8b be b6 ff 4c 3d
       0.14452766 -0.32601684 -0.2724119 0.050048552
0001b0 e4 6a ac bd 83 83 60 be cb 90 11 be 71 84 9a be
       -0.08418825 -0.21925168 -0.1421539 -0.3017917
0001c0 8d 83 9c be 72 3d 20 be 6c 74 a8 be 96 94 6d be
       -0.30569115 -0.1564844 -0.32901323 -0.23201212
0001d0 72 34 a6 bc 0f 14 29 3e ac 15 50 3e 28 53 8b 3e
       -0.02028868 0.16511558 0.20320767 0.2721188
0001e0 bd c5 cf bd 14 ab 95 3d 32 f4 ba bc 17 07 c8 3e
       -0.101451375 0.07308021 -0.02282152 0.3906791
0001f0 ef fc 93 be 75 b3 ab bd 9b 1c 9a bd 41 a9 ca 3d
       -0.2890391 -0.08383838 -0.07524987 0.09895564
000200 bf 30 a8 3c 35 d2 62 3a 69 0b 05 3c c9 0b 31 3c
       0.020531056 0.0008652539 0.008120396 0.010806032
000210 0f 39 02 3e 9b d4 b2 3d 5d e5 01 3e df d5 27 3c
       0.12717079 0.087319575 0.12685151 0.010243862
000220 fa 04 82 3c d3 6d ac 3e a6 35 a3 3e a4 98 75 bd
       0.015871514 0.3367754 0.31876868 -0.059960023
000230 08 42 81 3d 70 1a ba bd 06 f4 0b bd d7 72 b5 bd
       0.063114226 -0.09087074 -0.034168266 -0.088597946
000240 aa 2c f4 bd 14 6f 6c bd 31 29 0a bd 70 48 7d 3e
       -0.119225815 -0.05772312 -0.03373069 0.24734664
000250 4d 64 a4 3d c7 2f 9e 3e cd ed a9 3e d1 a1 a7 bc
       0.08026943 0.30895826 0.3318924 -0.020462902
000260 59 62 a8 bd 8b 70 56 3d 85 ee 0f bd e6 be 16 bd
       -0.08221883 0.052353423 -0.03513958 -0.03680315
000270 ce e0 bc be d9 ee e7 3c 98 cd 06 3e 7e f0 10 3e
       -0.36890262 0.028312134 0.13164365 0.1415424
000280 d7 bc ef bd 0d 8c 03 3e c7 73 96 3e 82 0c 40 3e
       -0.1170594 0.12846394 0.29385206 0.18754771
000290 f8 71 2f 3d 9c 4c fe bd d6 f4 12 3c 9a 86 8b 3d
       0.0428333 -0.12416956 0.008969506 0.068127826
0002a0 36 9b b1 be cc 72 69 be 5b 1f f6 bd 16 49 ec 3d
       -0.3468873 -0.22797698 -0.12017699 0.115373775
0002b0 a5 26 ab 3d c9 a5 b8 bd a7 e9 3c 3e 67 2e ab bd
       0.0835698 -0.09015996 0.18448506 -0.0835846
0002c0 8b 53 80 3d 05 9b eb be 7f ce 73 be 0f 88 4b 3c
       0.062659346 -0.46016708 -0.23809241 0.012422576
0002d0 68 3c 56 bd 52 1a 0b 3e a7 26 68 3e 18 20 68 3d
       -0.0523037 0.13584259 0.22670995 0.056671232
0002e0 f6 d2 8f 3c b6 60 6f 3d 00 70 d1 3e d2 ce 9c bd
       0.017556649 0.05844184 0.40905762 -0.07656635
0002f0 ba 69 38 bd 7e 19 8a 3e 41 a0 5d 3e 27 7e 95 3e
       -0.045022704 0.26972574 0.21643163 0.2919781
000300 b3 6f 3c 3e 90 f0 d2 3d 50 1c 37 bd c7 55 0d be
       0.18401985 0.1029979 -0.044704735 -0.13802253
000310 e8 2d 44 be b6 e2 0d be a7 6a 86 be d4 ba da bd
       -0.19158137 -0.13856015 -0.26253244 -0.10680166
000320 09 09 a9 3d ea 08 14 3e cd 52 cd 3b f7 2e 95 3d
       0.082536764 0.14456525 0.006265974 0.072843485
000330 8a b8 72 3d e3 7b 8e 3d 0e 82 05 3a 6c b9 8f 3c
       0.05925802 0.06957223 0.0005092927 0.01754447
000340 a8 31 2a 3e 1a dc 25 3e 11 ab a8 bb de 59 9c bd
       0.16620505 0.16197243 -0.005147346 -0.07634328
000350 05 08 b7 bd 4f eb 11 3c 7c a2 63 be 93 55 17 3e
       -0.089370765 0.0089062 -0.22229952 0.14778738
000360 34 d0 b9 bc df 5d 43 3d 11 ef 6f 3e 04 52 de bd
       -0.022682287 0.047696944 0.2343104 -0.10855487
000370 45 c0 7d be fd 3a 94 be c2 62 52 be 13 43 0e be
       -0.24780376 -0.28951254 -0.20545486 -0.13892774
000380 d8 29 a5 be 01 be 90 bc 6d 7b c0 3e 3b da a1 3e
       -0.32258487 -0.017668726 0.37594166 0.3161181
000390 c7 f1 f7 bd d9 8b cb bd f9 b9 ff b9 3e dd 4e 3e
       -0.12106662 -0.09938783 -0.0004877595 0.20201585
0003a0 76 0d a6 be 9e db 29 be 15 59 75 be d7 1b 78 be
       -0.32432145 -0.16587684 -0.23959763 -0.2422937
0003b0 eb f7 77 be ff e1 04 be 07 16 04 be 64 b7 65 3d
       -0.24215667 -0.12976836 -0.12899028 0.056083098
0003c0 8c 3a 89 3e e1 c2 2b bc 44 d8 8b 3d 18 e7 07 be
       0.2680248 -0.0104834745 0.06828359 -0.13271749
0003d0 e6 7b 5c bd f8 02 16 3d 78 d1 a3 3b 99 bd dd 3c
       -0.053829096 0.036623925 0.004999336 0.027067946
0003e0 65 f0 ae 3a 07 a3 20 bc ff 8a c4 bc b3 4e 45 bd
       0.001334679 -0.009804494 -0.02399206 -0.048170757
0003f0 34 3b 28 3e bb 8f 8d 3e 0b 0b 8b 3e 56 8d 97 bd
       0.16428834 0.2764872 0.27156863 -0.074000046

stream1_stage2.0.bias f4 [32]
000000 5a 26 df b9 c3 5c a3 37 20 17 22 ba f5 c2 0e b9
       -0.0004256245 1.947431e-05 -0.00061832555 -0.00013614802
000010 81 f0 e3 b8 65 18 11 ba dc fa f3 b8 85 01 d6 b9
       -0.00010869001 -0.0005534946 -0.00011633869 -0.00040818393
000020 4f d7 47 b9 46 7a 9f 38 d3 15 82 b9 3f f1 50 39
       -0.00019058328 7.604486e-05 -0.00024811793 0.00019926297
000030 80 28 2c b9 ed d4 ea b9 6e 59 a0 39 5c 8b 00 b8
       -0.00016418286 -0.000447906 0.00030584208 -3.0647367e-05
000040 d7 3d 29 39 8a b0 2e b9 7c 0e 6c 39 7f e0 1b 3a
       0.00016140133 -0.00016659699 0.0002251211 0.0005946233
000050 3e ea a3 b9 d8 a6 1f 39 17 d5 9a b9 2e 72 f6 38
       -0.00031264307 0.00015225576 -0.00029531933 0.00011751462
000060 5b 90 08 39 3e 85 a1 39 be 99 e9 b9 3d e6 05 3a
       0.00013023747 0.00030807586 -0.0004455577 0.00051078555
000070 30 82 42 b8 be 8a c6 38 d6 83 02 3a ef 4f 29 3a
       -4.637445e-05 9.4672185e-05 0.00049787515 0.00064587494

stream1_stage2.1.weight f4 [32]
000000 94 31 57 3f 34 7f 8b 3f b9 04 92 3f d6 fd 51 3f
       0.84060025 1.0898194 1.1407691 0.8202795
000010 fb 4b 6d 3f 04 c5 83 3f 0f e9 33 3f 2f b8 80 3f
       0.9269406 1.0294499 0.70277494 1.0056208
000020 38 71 58 3f f6 5a 86 3f 6d a9 3b 3f 92 10 82 3f
       0.8454776 1.0496509 0.733054 1.0161307
000030 bc 97 85 3f c3 72 3e 3f 8e c4 7a 3f 4d b6 77 3f
       1.0436931 0.7439386 0.9795617 0.96762544
000040 6c c1 74 3f b2 b1 96 3f 45 4d 70 3f 6b 8c 88 3f
       0.9560764 1.1772978 0.93867904 1.0667852
000050 23 93 8c 3f 6b ba 86 3f 57 1a 87 3f 02 7c 9d 3f
       1.0982403 1.052564 1.0554913 1.2303469
000060 97 77 87 3f eb 8b 81 3f a4 5f 67 3f cd 90 47 3f
       1.0583371 1.0120825 0.9038031 0.77955323
000070 60 5a 96 3f b5 b9 70 3f 49 09 7a 3f 24 ca 4f 3f
       1.174633 0.94033366 0.9767042 0.8116782

stream1_stage2.1.bias f4 [32]
000000 52 2f d2 be 7b 6e ab be 68 f6 a4 be 0d 93 a0 be
       -0.41051728 -0.33482727 -0.32219243 -0.3136219
000010 27 42 92 be 90 7e f8 3b 9c 01 07 bf ac 64 7d be
       -0.28566095 0.007583447 -0.5273683 -0.24745435
000020 85 3a 88 bd 12 7a 41 be a4 4b 09 bf 2a b5 40 be
       -0.06651787 -0.18894222 -0.53631043 -0.18819109
000030 93 15 2d be d8 68 da be 1c 1a 0b be 03 fa 89 be
       -0.16902761 -0.42658114 -0.13584179 -0.26948556
000040 59 ac 80 bd af 49 88 be 60 91 3e be b0 21 d0 be
       -0.06282873 -0.26618716 -0.18610144 -0.40650702
000050 4f b4 20 be f2 c2 3e be 3e d1 dd bd 23 20 5f be
       -0.15693782 -0.18629053 -0.108309254 -0.21789603
000060 18 2f d5 bd 77 d4 f8 bd 1d a5 00 be 63 4d 30 be
       -0.10409373 -0.121498995 -0.12562986 -0.1721702
000070 c7 96 f1 be e2 ce 96 bd f0 7f 90 bd 9c 4e ca be
       -0.47185346 -0.073636785 -0.07055652 -0.395131

stream1_stage2.1.running_mean f4 [32]
000000 32 78 e1 bf 7a b5 0d c0 7a 89 c4 be 6f dd 81 3c
       -1.7614806 -2.2142015 -0.38386136 0.015852658
000010 63 db ca 3c 38 b9 6e c0 38 01 a4 3e fc e3 0d c0
       0.024762815 -3.7300549 0.3203218 -2.21704
000020 56 bf 3e c0 95 ce eb bf e2 de cc 3e 46 76 ef bf
       -2.9804282 -1.8422419 0.40013796 -1.8707969
000030 f6 5f ea be a2 dc ba bf 81 8c 23 c0 d1 6e 0c c0
       -0.45776337 -1.4598582 -2.5554507 -2.1942637
000040 e6 bb 4d be cd af fa bf 3e dc 96 bf 6f 94 9f bf
       -0.20091209 -1.95849 -1.1785963 -1.2467173
000050 36 b8 19 c0 1e 17 4e c0 6c 6d 24 c0 b0 e2 fd bf
       -2.4018683 -3.220161 -2.5691786 -1.9834805
000060 d4 3c 90 bf c0 56 22 bf ba 49 81 bf a5 1d e3 bd
       -1.1268563 -0.6341362 -1.0100625 -0.110896386
000070 29 cb 02 c0 73 93 99 bf 5c 61 17 c0 a7 b7 26 c0
       -2.04365 -1.1998123 -2.3653173 -2.6049592

stream1_stage2.1.running_var f4 [32]
000000 40 63 b7 40 b0 01 08 41 ff 21 a4 40 ae 71 fa 40
       5.7308655 8.500412 5.12915 7.826377
000010 79 87 91 40 54 d3 2f 41 3a cd 66 41 00 41 a7 40
       4.547787 10.989094 14.425104 5.2266846
000020 56 ef e5 40 83 0e c7 40 ed dd e3 40 6e 1c af 40
       7.185466 6.2205215 7.1208405 5.4722204
000030 4c f5 8c 40 ab fa 12 41 48 04 38 41 2c 9e 0e 41
       4.4049435 9.186198 11.501045 8.913616
000040 71 9d 0d 41 38 c0 22 41 cc 49 12 41 4e 3f b7 40
       8.850938 10.171928 9.143017 5.7264776
000050 fb 0d cb 40 69 63 3d 41 80 42 d2 40 8d 85 c3 40
       6.3454566 11.83677 6.5706177 6.1100526
000060 5f c7 b3 40 2c 11 10 41 bd 59 17 41 e3 28 88 40
       5.6180873 9.004192 9.459409 4.254991
000070 4c 83 c3 40 8e e2 df 40 ea 1b 17 41 3e da 54 41
       6.1097775 6.9964056 9.444315 13.303282

stream1_stage1.0.weight f4 [32, 32, 3, 3]
000000 06 7d ad be f4 c0 0d be 46 c8 08 be 90 f2 03 be
       -0.33884448 -0.13843137 -0.13357648 -0.12885499
000010 8a db 31 be f6 89 58 3b 22 bf 81 be 97 d7 88 be
       -0.17368904 0.0033041216 -0.25341135 -0.26726982
000020 d2 26 b2 3d a9 cb ce bd 21 a9 b9 bd b7 fc 11 3e
       0.08698811 -0.10097439 -0.09065462 0.1425656
000030 6d 6f 04 3e e9 d7 bb bc 48 1f 3d be af 8f 94 bd
       0.1293313 -0.022930102 -0.18468964 -0.07253968
000040 16 8e 8b bd 02 55 8f 3d ee 99 68 3e 99 a3 81 3c
       -0.0681421 0.06998636 0.2271497 0.01582508
000050 80 1d 29 3d 84 c6 cb 3d 82 42 63 3e 6d c5 e3 3e
       0.0412879 0.09949973 0.2219334 0.4448656
000060 c4 7f 3c bd 26 81 7e be b5 f9 01 be 6a 18 4d bd
       -0.046020284 -0.24853954 -0.12692912 -0.05007211
000070 2b 23 1e bd 02 d4 e4 3d 2b 68 51 3d c3 54 22 be
       -0.038607758 0.1117325 0.051124733 -0.15852647
000080 dd 47 21 3d ca 11 8c be 12 b1 27 be 82 1e 9a 3d
       0.039375175 -0.27357322 -0.1637614 0.0752535
000090 92 35 13 be 75 99 55 be e1 fc c7 3d 23 af 3b be
       -0.14375904 -0.2085932 0.0976503 -0.18328528
0000a0 cb 61 d5 bd 19 a8 38 3e 2a bb 1a 3e 94 93 1c 3d
       -0.10419043 0.18032874 0.1511046 0.03822668
0000b0 f0 b8 8e 3e b9 5c 23 bd 14 13 b0 3d 48 4a c0 3d
       0.2787547 -0.03988335 0.08597389 0.09389168
0000c0 e0 7c 51 3e 4f d1 6b bd 95 b0 4c be 88 f3 d6 3d
       0.20457792 -0.05757266 -0.19989236 0.10495669
0000d0 b1 6f 5e 3e 2f 40 af bc 91 26 88 be 77 3c 42 bd
       0.21722294 -0.02139291 -0.26591924 -0.047420945
0000e0 8d 05 64 3e 29 99 db bc 81 77 6f be 24 c2 21 be
       0.22267742 -0.02680643 -0.23385431 -0.15796715
0000f0 5d 07 7a 3e 9a 2e 82 3e 45 eb e2 3b 2a 7b 05 3d
       0.24416871 0.2542618 0.006925019 0.03258816
000100 47 1c 03 be f5 6b 09 3e 76 12 a1 3e a8 ff a9 3d
       -0.12803756 0.13420089 0.31459397 0.08300716
000110 bc 80 2e be 13 b3 10 bd 2a df b5 be 91 dc 92 be
       -0.17041296 -0.03532703 -0.35521823 -0.28683904
000120 75 fe 06 be 42 80 dd bc c7 99 99 bc c2 a1 b4 bd
       -0.13183005 -0.027038697 -0.018750085 -0.08819915
000130 6f d3 cd 3d 78 23 e9 bb ba e8 9a 3e 87 f3 90 3e
       0.100500934 -0.007114824 0.3025568 0.28310797
000140 15 6c 93 3d da 5d 66 3e 5f 13 a9 3c a4 32 e7 bc
       0.071983494 0.22496739 0.02063912 -0.02822239
000150 af af 05 3e e4 19 b1 be af 16 81 3d 9c 59 40 3d
       0.13055299 -0.34590065 0.06303155 0.04696046
000160 9e 4e be bd c1 69 0b be 21 b2 d2 be 67 a4 ad be
       -0.09292339 -0.1361456 -0.41151527 -0.33914492
000170 95 63 02 be e1 b9 8b be a7 c3 2e be 17 25 c1 bd
       -0.127333 -0.27290252 -0.17066823 -0.094309025
000180 0a 36 30 3c 3a d2 7c 3d fd 9a 6f bd d8 48 23 3d
       0.010755071 0.061723925 -0.058497418 0.03986439
000190 24 2e 77 3e 32 df 51 bd 5d 04 b3 bd 66 84 fa 3d
       0.24138695 -0.051238246 -0.087410666 0.12232284
0001a0 df 73 17 3e 64 59 42 3c 84 67 51 3e 77 01 0a be
       0.14790295 0.011862133 0.20449644 -0.13477121
0001b0 8b e5 1e 3e 47 1d 0c 3e 86 0a 0b 3c c7 8e 21 bd
       0.15517251 0.13683043 0.008486396 -0.039442804
0001c0 dd ac 50 be e1 fc 72 be 9a 28 56 3e e4 e0 4a be
       -0.20378442 -0.23729278 0.20913926 -0.19812351
0001d0 75 ce b0 bd 0d b8 e0 3c 7c 30 97 3c 77 cf 0a bd
       -0.086331286 0.027431512 0.018455736 -0.03388926
0001e0 b7 8f d6 bc ca 98 99 bc 8e 88 06 3e 21 d2 f4 bd
       -0.026191575 -0.018749613 0.13138029 -0.119541414
0001f0 5e 67 8e 3c 41 41 5c be f8 64 2e 3d 91 78 8c bd
       0.017383274 -0.21509267 0.04257676 -0.06858934
000200 4c 12 64 3c 0d 8a 0d be 02 87 33 bd 51 d7 03 3e
       0.013920378 -0.13822193 -0.043829925 0.12875105
000210 7a ec 18 be 2c 04 4a 3b ca 29 a5 bd b3 62 9f be
       -0.14933959 0.003082524 -0.08064611 -0.3112999
000220 76 92 05 3e 0e 9f e1 3c 5b 3c d8 be 96 07 c5 be
       0.13044152 0.027541663 -0.42233548 -0.3848235
000230 c6 ce 99 bb e7 d8 8d be f2 13 86 be db 07 2f bd
       -0.004693839 -0.27704546 -0.26187092 -0.0427321
000240 e8 be 0f 3e 57 9d 1a be b7 2d 29 be 3c 98 84 3c
       0.14037669 -0.15099083 -0.16521345 0.016185872
000250 77 5b af bd f4 c9 03 be f8 77 95 3e 43 67 9a be
       -0.085623674 -0.12870008 0.2919309 -0.30156907
000260 d0 7b b6 bd d8 fc 09 bf 4f 81 51 bd 9d 1a 8c 3e
       -0.08910334 -0.53901434 -0.05114871 0.27364054
000270 e5 fb 6c be 0c f7 29 3e b8 7e 9b 3e 61 39 20 3d
       -0.23142965 0.16598147 0.30370116 0.03911722
000280 da 46 14 3e 8a 2c 03 be 69 70 e7 bd 21 ac 84 be
       0.14480153 -0.12809959 -0.113007374 -0.25912574
000290 ab c7 a1 3d 1e 33 76 bc 9f 24 2a be e6 ab 44 3c
       0.07899412 -0.015026836 -0.16615532 0.012003874
0002a0 7a 76 01 be 3d 61 a6 3d 21 e1 04 3e b5 78 6c 3e
       -0.12642851 0.081240155 0.12976505 0.23092921
0002b0 9c 25 23 be cf dc 5a be 64 f3 10 3e ff 84 b8 3d
       -0.15932316 -0.21373294 0.14155346 0.09009742
0002c0 18 1f c4 3d 48 5d 2c 3d 4b dd d6 bd 69 42 28 3d
       0.09576243 0.042081147 -0.10491427 0.04107896
0002d0 68 27 9c 3e 85 f8 d0 3d b3 33 09 3e 16 09 d1 3d
       0.30498815 0.10203651 0.13398628 0.10206811
0002e0 5e 08 6b 3d 41 9e 38 bd 3f 94 09 3d a1 6c 3c 3d
       0.057381026 -0.045072798 0.033588644 0.046002034
0002f0 a9 d0 1f be b3 93 83 be 81 be 40 be 00 bf 4a be
       -0.15606941 -0.25698623 -0.18822671 -0.19799423
000300 fa 89 89 bd e4 b1 d4 bc fd 67 47 bd 2e 46 9c be
       -0.0671577 -0.025963731 -0.048683155 -0.30522293
000310 44 9c fc 3c e4 54 10 3e cc 83 8e bd fc 82 19 be
       0.030836232 0.14094883 -0.06958732 -0.14991373
000320 04 e7 fa bd 3a 8e 00 3e d9 88 2c 3e 3c 09 8a 3d
       -0.12251094 0.12554255 0.16849078 0.067400426
000330 79 84 34 bd ed b6 e6 3d c3 0a 4c be d9 6f f3 3d
       -0.04407165 0.11265359 -0.1992598 0.118865676
000340 75 cc cd 3d 5b a5 d3 3e 1d 9b 2a 3e 94 c2 39 be
       0.10048763 0.41337094 0.16660734 -0.18140632
000350 91 3f c3 bc 90 c7 f0 ba e3 9d c9 be 13 3f ba be
       -0.023834022 -0.0018370021 -0.3937827 -0.36376247
000360 23 49 35 3e 8c 4c 1b be 32 70 31 bd 0a 3d 47 3d
       0.1770368 -0.15165919 -0.04331989 0.048642196
000370 46 df 69 3d b6 c2 ab bd 70 38 c8 be 2e b3 cf 3d
       0.057097696 -0.083867475 -0.39105558 0.10141598
000380 c6 1e 6d 3d 98 57 06 3e f1 a3 c1 3d 20 09 3e bc
       0.057890676 0.13119352 0.094550975 -0.011598855
000390 d6 ff b2 3d eb 09 0d 3d 52 aa 90 3d a6 e4 94 bd
       0.08740203 0.034433287 0.07063736 -0.07270174
0003a0 8d 53 92 3e aa 64 29 3e c7 6a 42 3e 90 3d c0 be
       0.2857937 0.16542307 0.18986045 -0.37546968
0003b0 00 5c cc be 0c ce 9f bc d0 67 9a bd 33 63 11 3e
       -0.3991394 -0.01950743 -0.07539332 0.14197998
0003c0 fb 40 ae be 65 72 ca 3d 12 66 32 3e 8c 45 37 bd
       -0.3403395 0.098851 0.17421749 -0.04474406
0003d0 b9 27 70 3e b1 b2 c8 3d 7a 76 07 be 18 cf 0d bd
       0.23452653 0.09799708 -0.13228789 -0.034621328
0003e0 4c 95 68 3e f6 1c b3 3c 1e 47 cc 3d 9d 4e 61 3e
       0.22713202 0.021864396 0.09974502 0.22002645
0003f0 63 de 43 3e 2c 32 9f bd be 60 69 3d 05 56 04 3e
       0.19127803 -0.077732414 0.056977026 0.12923439

stream1_stage1.0.bias f4 [32]
000000 30 4b db b9 3a 32 1c 38 8e 7a 5c b9 d3 71 d7 b9
       -0.00041826954 3.7240075e-05 -0.0002102649 -0.000410928
000010 76 18 ae b7 bb 22 d0 39 2f ee c9 b9 3a f7 17 3a
       -2.0753807e-05 0.00039698728 -0.00038515168 0.00057970325
000020 5a 83 06 b9 18 53 1f 39 2d b0 a3 38 ae e6 ef b7
       -0.00012828168 0.00015194376 7.805261e-05 -2.8598439e-05
000030 e6 fc 92 38 09 ef f7 39 c0 51 48 39 94 1d a6 39
       7.0089285e-05 0.00047289606 0.0001910394 0.00031684025
000040 7b 6a 33 b9 ed 1a 86 38 c7 f6 7c b8 83 9a 21 3a
       -0.00017110437 6.394633e-05 -6.031131e-05 0.00061646866
000050 39 71 a1 38 25 00 13 39 48 09 fc 39 cb de 3e 3a
       7.6981676e-05 0.00014019066 0.000480721 0.00072811235
000060 dd 0a 61 39 38 1c f7 39 ab 55 24 38 b7 bb 5c 3a
       0.00021461719 0.00047132536 3.918043e-05 0.00084203057
000070 ee 73 0f ba f0 94 3d ba 0d 27 c5 39 bf be 3d b8
       -0.0005472292 -0.0007231971 0.00037603863 -4.5238758e-05

stream1_stage1.1.weight f4 [32]
000000 65 00 62 3f 17 0b 5f 3f 3e 50 71 3f 8c 22 85 3f
       0.8828185 0.87126297 0.94263065 1.0401168
000010 6d e7 55 3f d0 55 71 3f f3 78 75 3f e3 9b 80 3f
       0.8355625 0.94271564 0.9588768 1.0047573
000020 94 49 54 3f 6a 18 7c 3f 5d 53 84 3f 5d 63 91 3f
       0.8292477 0.9847475 1.033794 1.1358448
000030 de 69 69 3f d9 d7 76 3f 92 f9 79 3f 90 d6 87 3f
       0.91177166 0.9642311 0.9764644 1.0612354
000040 ac 2e 90 3f b2 f0 6f 3f de c2 7e 3f ad 2b 77 3f
       1.1264243 0.93726647 0.99516094 0.9655102
000050 c5 fb 81 3f f5 03 74 3f 3a dd 8a 3f 79 9d 6d 3f
       1.0154959 0.9531854 1.0848763 0.9281841
000060 96 d0 7f 3f f8 15 89 3f fa ae 73 3f 3a 16 77 3f
       0.9992765 1.0709829 0.9518887 0.9651829
000070 e0 b9 9f 3f 8f 92 73 3f b1 6b a0 3f 10 4d 7f 3f
       1.24786 0.95145506 1.2532865 0.99726963

stream1_stage1.1.bias f4 [32]
000000 7c ad d7 bd df 51 25 bc b8 a3 0f be 47 24 8e be
       -0.105311364 -0.01009032 -0.14027297 -0.27762052
000010 3c 73 9a bc 8e 04 5d be f2 02 b2 be ee 27 c1 be
       -0.018853776 -0.21583769 -0.34767872 -0.37725776
000020 d9 e5 fb be 92 75 19 be a4 ff 25 be 07 f2 44 be
       -0.49198797 -0.14986256 -0.162108 -0.19232951
000030 56 e4 a8 be 0d 6b 6a be 42 ad b3 be 9d 7d 8d be
       -0.32986706 -0.22892399 -0.35093123 -0.27634898
000040 d1 33 ab be 01 95 3a be 03 73 3c bc 4c 72 a1 be
       -0.3343797 -0.18220903 -0.01150203 -0.31532514
000050 2a 66 20 be 12 ff a7 3c ec 86 80 be c0 a4 b8 be
       -0.15663972 0.02050737 -0.25102937 -0.36063194
000060 c7 94 89 be 5b 6d db bd af d7 04 be c4 32 90 be
       -0.2687132 -0.10714217 -0.12972902 -0.2816373
000070 3d ca 78 be 82 a8 15 be 35 b2 52 be 58 45 85 bd
       -0.24295898 -0.14615062 -0.20575793 -0.06507367

stream1_stage1.1.running_mean f4 [32]
000000 3e 27 e0 bf cc a4 98 bf 34 30 97 bf ad eb ec 3e
       -1.7511976 -1.1925292 -1.1811585 0.46273556
000010 75 d9 bc bf 75 29 25 bf 21 1e fd be 41 8b 5a bd
       -1.4753863 -0.64516383 -0.4943705 -0.05335546
000020 76 70 76 be 65 78 ac be b1 2e 9f bf e6 ef 8b bf
       -0.24066338 -0.33685604 -1.2436124 -1.0932586
000030 54 9d 8b 3f c2 07 b6 bf 4d 91 2a bf a1 6f dd 3c
       1.0907388 -1.4221117 -0.6662796 0.027030768
000040 33 b1 8a bf b5 5b 97 bf 67 6e 12 c0 7c 01 28 bf
       -1.0835327 -1.1824862 -2.2879884 -0.65627265
000050 44 d9 46 bf 23 15 4d bf c6 48 10 bf e3 a3 af be
       -0.7767527 -0.8011038 -0.56361043 -0.34304723
000060 98 61 ad be da 06 82 bf 6e e0 dc bf c0 a2 a2 bf
       -0.3386352 -1.0158341 -1.725599 -1.2705917
000070 21 6d ac bf 42 aa b2 bf 2d f0 d9 be a8 9a 85 be
       -1.3470803 -1.3958209 -0.42566052 -0.26094556

stream1_stage1.1.running_var f4 [32]
000000 ff b5 0a 40 40 e9 a8 3f ca 49 fa 3f 6f 09 02 40
       2.1673582 1.3196182 1.9553769 2.0318258
000010 fc d4 91 3f f9 59 c5 3f 22 de a1 3f f5 60 6b 3f
       1.1393123 1.5418082 1.2645915 0.9194482
000020 50 43 bc 3f a1 55 7a 3f 6e 19 9c 3f 62 e4 6b 3f
       1.4708042 0.9778691 1.219526 0.9214536
000030 cd 6c 98 3f 41 e6 02 40 55 d5 e2 3f 3a d3 d5 3f
       1.1908203 2.0453036 1.7721354 1.6705086
000040 bb 9a cf 3f 9c c0 f7 3f 96 e7 08 40 9b 97 a3 3f
       1.6219095 1.9355655 2.139135 1.2780641
000050 12 a3 9b 3f a1 95 27 40 72 c0 bb 3f 87 30 a8 3f
       1.215914 2.6185076 1.4668105 1.3139809
000060 eb d4 9b 3f 52 ec a6 3f f1 ab db 3f 0f d4 d1 3f
       1.2174352 1.3040869 1.7161847 1.639284
000070 22 19 ea 3f cb 60 21 40 45 01 02 40 8e 50 e2 3f
       1.828892 2.5215328 2.0313275 1.7680833

stream1_stage1.4.weight f4 [32, 32, 3, 3]
000000 30 be c1 bd 7d 5a 01 3e ca 54 0d be 28 51 9f be
       -0.094601035 0.12632175 -0.13801876 -0.31116605
000010 3a 53 06 3e 35 18 97 3c 26 75 a2 3d 18 8f 46 be
       0.13117686 0.01844416 0.079325005 -0.19390523
000020 2a 1c 39 bd ae 5a bd bc 59 74 dc bd db 34 81 3d
       -0.045192875 -0.023114529 -0.10764379 0.063089095
000030 9c 74 06 3c c9 b1 eb bd 6e 03 97 be 00 7e 94 be
       0.008206513 -0.11508519 -0.29494804 -0.2900238
000040 f4 20 33 3e eb c6 61 3d bf 03 d4 3e 42 08 5b bd
       0.1749304 0.055121344 0.41409108 -0.053474672
000050 55 91 54 be e3 f9 66 3c 6f 73 92 3d 9c 17 b5 bd
       -0.20758565 0.014097664 0.071509235 -0.08842394
000060 dd 0c 94 3d 58 8a 05 3f 1d 71 4d 3e 19 c8 c2 3c
       0.07229016 0.5216422 0.2006268 0.023777055
000070 66 5c b6 3d a9 60 12 3e eb c5 de 3c 6d 29 ac 3d
       0.08904342 0.14294685 0.027193984 0.08406339
000080 e3 13 a5 3d 4f 7c 29 3e 3f a2 8a 3e 9f b2 59 3d
       0.08060434 0.16551326 0.2707691 0.053148862
000090 45 8f 4b 3e bb 06 08 3e 94 05 c0 be 39 7d f3 bd
       0.19878872 0.13283817 -0.37504256 -0.11889119
0000a0 5e 9b 06 3e 90 24 99 3e 32 a2 85 3c 28 57 8d 3d
       0.13145205 0.29910707 0.016312692 0.06901389
0000b0 02 c3 34 be 6e 6b 38 be d8 e6 14 3d ce 80 18 be
       -0.17652515 -0.18009731 0.036352962 -0.14892885
0000c0 80 0d 7d be 12 57 52 3e d9 64 16 bf 8c c9 bb 3c
       -0.24712181 0.20541027 -0.5874763 0.022923253
0000d0 30 a8 d7 3d 95 b9 85 3e 6d eb 0d 3f cc 15 5a 3d
       0.10530126 0.2611815 0.55437356 0.053243443
0000e0 e7 d4 61 3e 9c b1 77 3d 0a 9f 79 be 42 86 be be
       0.22053872 0.060472116 -0.24377075 -0.37211806
0000f0 0c 84 39 3e ca d2 88 3c fa fb 4a 3e ca 6f 35 3e
       0.18116778 0.016702075 0.19822684 0.17718425
000100 95 c9 e8 3d 92 e5 dd 3d a8 66 1b be 8f 79 fe bd
       0.11366574 0.10834803 -0.15175879 -0.12425529
000110 82 26 97 3d b8 97 1e be 95 d0 bf 3d 05 81 94 bd
       0.07380392 -0.15487564 0.09365956 -0.07251171
000120 5c bc f0 3d 1e 32 0c 3e 3d a9 9f 3d 30 52 0c bf
       0.11754677 0.13690993 0.077959515 -0.5481291
000130 bf 15 20 3b b9 0b a1 3e 98 3e 19 3e 9c ee 4e 3d
       0.0024427024 0.31454256 0.14965284 0.050520524
000140 8f c6 86 bd 82 8a 07 be d0 a5 15 be 69 1e 97 3d
       -0.06580841 -0.1323643 -0.14614034 0.07378847
000150 3c fd 47 be ec 3d 48 be ea 24 38 3d c4 32 0e bc
       -0.19530195 -0.19554871 0.04495708 -0.008679096
000160 6c 87 d9 bd 06 03 fa be 65 ca 0f 3d d5 60 c5 3d
       -0.10621533 -0.48830432 0.035105128 0.0963761
000170 b0 82 4c be a0 34 d7 3d b0 f2 8d bd 44 11 ab 3d
       -0.19971728 0.10508084 -0.069310546 0.083529025
000180 27 99 81 be 70 25 f1 3d 1a 97 a6 bc 55 32 48 bd
       -0.25312158 0.11774719 -0.020335723 -0.048876125
000190 e9 74 af 3d e2 02 c3 3b 2b ac 28 bc 9c dc ab 3e
       0.08567221 0.0059512714 -0.010294954 0.3356675
0001a0 76 62 66 be ae 2e fe bd da 2b 82 be b2 84 50 bd
       -0.22498497 -0.12411247 -0.2542408 -0.050907798
0001b0 1a 8e 89 bd 6f fa 97 3e 79 3f 12 bd de ae 01 be
       -0.06716557 0.29683253 -0.035705063 -0.12664363
0001c0 31 05 50 be 20 9c b0 3d 2d 44 f8 3d 57 10 d6 be
       -0.2031448 0.086235285 0.121223785 -0.4180934
0001d0 18 dc ba 3e 33 41 42 be 13 1e e6 bd 91 ea 59 bd
       0.36496043 -0.18970184 -0.11236205 -0.053202216
0001e0 9b 6c fb 3d 7e 89 5b 3d 93 a7 8c bd 88 29 a9 bc
       0.12276574 0.05359792 -0.068679 -0.020649686
0001f0 99 a9 03 3b 3f 9a 30 be 08 03 61 3c e8 7d b9 3e
       0.0020090102 -0.1724634 0.013733633 0.3622887
000200 72 5a c3 3e 3f 53 cc 3d 5b 5d 0b 3e 5a a5 f1 bc
       0.38154942 0.099768154 0.13609831 -0.029497791
000210 e6 2c 53 3b 12 07 32 bc 44 79 e8 3e c7 29 66 bd
       0.0032222806 -0.0108659435 0.45405018 -0.056192186
000220 5b 8f 17 3e b4 ad 95 3c 70 90 1b be 5d 7b 8a 3d
       0.1480078 0.018271305 -0.15191817 0.06761811
000230 df 19 d8 bc 32 1b d2 3d f4 f7 02 3e 80 2c 61 3e
       -0.026379524 0.10259093 0.12789899 0.21989632
000240 2e ff 0f be 47 62 f6 bd ce f9 33 3e 9a c6 f3 3c
       -0.14062187 -0.12030464 0.17575762 0.029757787
000250 15 70 f2 3d e5 94 b4 bc 3c 26 00 be a4 c6 17 3e
       0.11837784 -0.022043655 -0.12514585 0.14821869
000260 a7 e2 b4 3c d3 ce 47 3e c5 c2 15 3e e5 5c 31 bc
       0.022080733 0.19512491 0.1462508 -0.01082537
000270 20 24 8c be ca c4 40 be c3 7d 8f be bf 2b 93 3d
       -0.2737131 -0.18825069 -0.28025636 0.07186078
000280 ba d2 5d 3e ae a2 5a 3d cc 7f d9 bc af 1f 05 be
       0.21662417 0.0533778 -0.026550196 -0.13000368
000290 47 55 27 be 8e f1 54 bd 4a c3 09 3e ec 5c 4c bc
       -0.16341124 -0.051988177 0.13453403 -0.012473326
0002a0 f2 a6 66 bd 5b d2 87 3e 85 d0 fd 3d 72 dd 46 3e
       -0.056311555 0.26527676 0.123932876 0.19420412
0002b0 bd 1c 7d 3d 46 38 2d bd ec ff 11 bd 27 fb be 3d
       0.061794985 -0.042289995 -0.035644457 0.09325247
0002c0 b4 c8 16 be 75 48 b0 bd 1e 34 5d 3e e4 2f 97 bd
       -0.14725 -0.0860757 0.21601912 -0.07382181
0002d0 12 31 be bd 4c ce 9b 3e d2 65 9a bd a3 7f 5e be
       -0.09286703 0.3043083 -0.07538952 -0.21728377
0002e0 dd 2d 1d 3e d3 eb 2b be 7a d0 46 3e 12 3f 1a bc
       0.15349527 -0.16789179 0.19415465 -0.009414451
0002f0 b7 21 d8 bd 3c 94 44 be 82 14 0b 3d 63 7a a1 be
       -0.105533056 -0.19197172 0.033955105 -0.31538686
000300 76 da e0 3d ba 41 3e bd 1c e9 19 be 92 49 53 3c
       0.10979168 -0.0464494 -0.1503033 0.0128959585
000310 5a b3 fb 3d 5e cd 34 bc c8 00 8d 3d d8 e7 ce bb
       0.12290068 -0.0110352915 0.06884915 -0.006314259
000320 a5 79 62 3e 57 b6 0c be 4a a8 67 3e f0 2b 57 3e
       0.22116716 -0.13741432 0.22622791 0.21012855
000330 71 4a 20 3c ac d5 0f be fe 44 df bd e9 7f 52 3e
       0.009783373 -0.14046353 -0.10901831 0.20556606
000340 d2 9d be bd 2f 2b 16 bd ba d3 c3 be cf 2a 9f be
       -0.093074456 -0.036662277 -0.38247472 -0.31087348
000350 c9 da 10 3e 28 2a 32 bc ba 9d e0 be c3 d3 da be
       0.1414596 -0.010874309 -0.43870336 -0.42739686
000360 a2 29 7e bd 9d 9b 87 bd 74 06 3b be 6d 56 5d be
       -0.062051423 -0.06621478 -0.1826418 -0.21615
000370 71 17 2b 3e 93 10 b8 3d ca a9 02 be f9 a1 2b 3e
       0.16708161 0.08987536 -0.12760082 0.16761006
000380 1f 41 4b be ce df d5 bd 3b 55 40 3e 73 24 97 3d
       -0.1984906 -0.10443078 0.18782513 0.07379999
000390 dd ed 2d 3e d2 8e a3 bd 37 b7 dd 3d 9e d8 ca bc
       0.16985269 -0.07986225 0.10825961 -0.024761494
0003a0 3e b0 a4 3e c0 7f 8a be 46 3b 25 3e 77 8f 65 3e
       0.32165712 -0.2705059 0.16135892 0.22418009
0003b0 73 05 c2 3d dd ce 08 3e 9f a8 9d 3e 27 67 66 3b
       0.094736956 0.13360162 0.3079271 0.0035156698
0003c0 90 d0 d8 3d 30 04 44 3e 6a fa 24 be 20 49 0f 3e
       0.10586655 0.19142222 -0.1611115 0.13992739
0003d0 8b 42 bb bc 52 5d 66 3e a8 a1 68 3c dc 64 b4 3e
       -0.022858879 0.22496536 0.014198698 0.352332
0003e0 cb 3d 18 3e fe 4c 45 3e 4a 12 0f be 2a 10 99 3e
       0.14867322 0.19267651 -0.1397182 0.29895145
0003f0 4a 1c 75 3e 77 35 34 be 35 d4 8b 3e 99 cc df 3d
       0.23936573 -0.1759852 0.2731034 0.10927696

stream1_stage1.4.bias f4 [32]
000000 2f b5 6b b8 1d f2 5c 39 0f f6 d8 b8 df ff fc 38
       -5.6197106e-05 0.00021071029 -0.000103455146 0.00012063956
000010 95 1d b2 b8 eb be 8f 39 c9 2d 68 b9 fc f7 e5 35
       -8.4932115e-05 0.0002741733 -0.000221423 1.7134003e-06
000020 23 5d 2e b9 46 84 64 b9 78 fc b0 b8 50 10 f9 b9
       -0.00016628629 -0.0002179305 -8.43936e-05 -0.00047505135
000030 88 24 90 b9 9a 86 26 39 77 86 4b 38 f6 28 36 3a
       -0.00027493038 0.00015881137 4.85242e-05 0.00069488527
000040 7d 96 5a 39 8a 3f 97 39 ef 96 21 ba 29 f0 10 b8
       0.00020846161 0.00028848305 -0.00061641535 -3.4555942e-05
000050 50 48 db 38 dd 2b fa b7 11 62 c3 39 6b 0d 0a 3a
       0.00010456203 -2.9822748e-05 0.00037266364 0.00052662817
000060 95 48 6d 37 6f e2 22 ba c4 27 5d 39 a4 5c 57 b9
       1.41432e-05 -0.0006213551 0.00021091016 -0.00020538509
000070 1d 26 d1 39 4a 27 bc b8 df a2 f1 38 9f d2 c1 b8
       0.00039891983 -8.971857e-05 0.000115221126 -9.2421884e-05

stream1_stage1.5.weight f4 [32]
000000 9d 3f 57 3f e2 26 49 3f a9 1f 3b 3f 30 00 3e 3f
       0.8408144 0.78574955 0.73095185 0.74219036
000010 e0 eb 59 3f d3 51 6e 3f 9d db 5e 3f 5a bc 3c 3f
       0.8512554 0.93093604 0.87053853 0.737249
000020 b1 58 5c 3f ca 3c 54 3f a2 b4 45 3f 4b 4e 3d 3f
       0.8607283 0.82905257 0.7722875 0.7394759
000030 e6 b6 84 3f 22 7b 2d 3f c3 f3 36 3f ff d1 52 3f
       1.0368316 0.6776601 0.714657 0.8235168
000040 09 bd 20 3f ce b5 94 3f 6f 58 5e 3f 9d 8d 4e 3f
       0.62788445 1.1617982 0.8685369 0.80684835
000050 02 05 4d 3f b7 03 31 3f cb 53 27 3f 58 30 52 3f
       0.80085766 0.69146293 0.6536223 0.82105017
000060 31 88 3f 3f 52 f0 4a 3f e7 87 2f 3f 02 0b 3f 3f
       0.74817187 0.7927295 0.68566746 0.7462617
000070 d8 f7 5c 3f 82 d7 81 3f 5d f8 32 3f 3c af 65 3f
       0.8631568 1.0143893 0.6991022 0.8972051

stream1_stage1.5.bias f4 [32]
000000 1e b9 cd 3c 35 b2 96 bd b3 8e 74 bd fc 34 18 be
       0.025112685 -0.07358209 -0.0597064 -0.14863962
000010 44 b7 fa bd df 04 29 bd 74 24 5c be fb ae 2a 3e
       -0.122419864 -0.04126441 -0.21498281 0.16668312
000020 11 69 5d be 61 bf e9 bb 3b b6 b7 bc 71 ca d9 3d
       -0.21622111 -0.00713341 -0.022425761 0.10634316
000030 c6 dd 1b be 1a e4 1f 3c 06 29 25 bb 7c 64 b3 bd
       -0.15221319 0.0097589735 -0.0025201454 -0.087594
000040 5d d7 bd bd c2 d1 3b 3e 34 9a 5f be 44 cf 44 bd
       -0.09269593 0.18341735 -0.21836168 -0.048049226
000050 88 2f dd bb e8 86 3e be 22 b0 8b bc 99 69 00 be
       -0.006750051 -0.1860615 -0.01705176 -0.12540282
000060 c5 77 4d bd 32 dc 0a be 64 90 78 bd 94 5d 25 be
       -0.05016305 -0.1356056 -0.060684577 -0.16148978
000070 b2 d2 0f be e0 15 46 be f2 a6 4b 3d e2 d5 2b 3e
       -0.14045218 -0.19344282 0.04971976 0.16780809

stream1_stage1.5.running_mean f4 [32]
000000 37 62 80 3f e2 f3 cb 3e 65 48 21 be 90 ca 85 be
       1.0029973 0.39834505 -0.15750273 -0.26131105
000010 41 20 00 bf e5 16 34 3d 31 87 7e bf 24 5f 1e c0
       -0.50049216 0.043967146 -0.99425036 -2.474557
000020 36 ea df be db 3a a4 3e d9 45 1a c0 18 e5 6d 3f
       -0.43733376 0.32076153 -2.4105132 0.92927694
000030 2b 88 16 bf 7f 69 7e c0 9f c5 83 3f 29 1b 01 c0
       -0.58801526 -3.975189 1.0294684 -2.0172827
000040 d8 5d 23 c0 3e 45 7e 3e 88 df 8d c0 6f 49 14 bf
       -2.5526028 0.24831101 -4.4335365 -0.5792455
000050 b5 8d cb 3f 8f 5d 83 be 82 33 c7 bf 69 17 bf 3c
       1.590262 -0.25657317 -1.5562594 0.023326593
000060 35 f4 c1 bf 3c c6 a0 bf 17 94 e8 bf 53 72 e4 3d
       -1.5152651 -1.2560496 -1.8170193 0.11154618
000070 2e db a1 3e 47 98 91 be 0a 08 1f c0 96 5a f4 3f
       0.31612533 -0.2843649 -2.4848657 1.9090145

stream1_stage1.5.running_var f4 [32]
000000 26 2e 48 40 2c 41 a4 40 d1 ec b1 40 ff b0 f5 3f
       3.1278167 5.1329556 5.5601583 1.919464
000010 98 cf 24 40 4b fd 51 40 dc 9d f3 3f 1a cf dd 41
       2.5751705 3.2810848 1.903255 27.726124
000020 16 4f ca 3f 7b f3 63 40 20 ff 29 40 5c f9 5c 40
       1.5805385 3.5617359 2.6561966 3.4527197
000030 31 66 4a 3f 77 ce 31 41 48 57 d3 40 a3 eb 27 41
       0.7906218 11.112906 6.6044044 10.4950285
000040 3a 4a a3 40 96 a8 03 40 b5 04 cb 41 b1 19 80 40
       5.102811 2.0571647 25.377298 4.003136
000050 b2 ac 8f 40 21 55 11 40 54 5a aa 40 d4 4f 0a 41
       4.489831 2.2708209 5.3235264 8.644489
000060 d1 f3 91 40 b3 13 89 3f aa f9 05 40 72 d5 16 40
       4.5610127 1.0709137 2.0933633 2.3567777
000070 6f 29 32 40 78 70 fa 3f 16 17 33 41 e3 92 4c 40
       2.783779 1.9565573 11.193136 3.1964653
